{"format": "layers-model", "generatedBy": "keras v2.2.4-tf", "convertedBy": "TensorFlow.js Converter v1.7.4r1", "modelTopology": {"keras_version": "2.2.4-tf", "backend": "tensorflow", "model_config": {"class_name": "Model", "config": {"name": "model_2", "layers": [{"class_name": "InputLayer", "config": {"batch_input_shape": [null, null], "dtype": "int32", "sparse": false, "ragged": false, "name": "decoder_inputs"}, "name": "decoder_inputs", "inbound_nodes": []}, {"class_name": "Embedding", "config": {"name": "embedding", "trainable": true, "batch_input_shape": [null, null], "dtype": "float32", "input_dim": 15000, "output_dim": 100, "embeddings_initializer": {"class_name": "RandomUniform", "config": {"minval": -0.05, "maxval": 0.05, "seed": null}}, "embeddings_regularizer": null, "activity_regularizer": null, "embeddings_constraint": null, "mask_zero": false, "input_length": null}, "name": "embedding", "inbound_nodes": [[["decoder_inputs", 0, 0, {}]]]}, {"class_name": "InputLayer", "config": {"batch_input_shape": [null, 128], "dtype": "float32", "sparse": false, "ragged": false, "name": "input_1"}, "name": "input_1", "inbound_nodes": []}, {"class_name": "InputLayer", "config": {"batch_input_shape": [null, 128], "dtype": "float32", "sparse": false, "ragged": false, "name": "input_2"}, "name": "input_2", "inbound_nodes": []}, {"class_name": "LSTM", "config": {"name": "decoder_LSTM", "trainable": true, "dtype": "float32", "return_sequences": true, "return_state": true, "go_backwards": false, "stateful": false, "unroll": false, "time_major": false, "units": 128, "activation": "tanh", "recurrent_activation": "sigmoid", "use_bias": true, "kernel_initializer": {"class_name": "GlorotUniform", "config": {"seed": null}}, "recurrent_initializer": {"class_name": "Orthogonal", "config": {"gain": 1.0, "seed": null}}, "bias_initializer": {"class_name": "Zeros", "config": {}}, "unit_forget_bias": true, "kernel_regularizer": null, "recurrent_regularizer": null, "bias_regularizer": null, "activity_regularizer": null, "kernel_constraint": null, "recurrent_constraint": null, "bias_constraint": null, "dropout": 0.0, "recurrent_dropout": 0.0, "implementation": 2}, "name": "decoder_LSTM", "inbound_nodes": [[["embedding", 0, 0, {}], ["input_1", 0, 0, {}], ["input_2", 0, 0, {}]]]}, {"class_name": "Dense", "config": {"name": "decoder_dense", "trainable": true, "dtype": "float32", "units": 15000, "activation": "softmax", "use_bias": true, "kernel_initializer": {"class_name": "GlorotUniform", "config": {"seed": null}}, "bias_initializer": {"class_name": "Zeros", "config": {}}, "kernel_regularizer": null, "bias_regularizer": null, "activity_regularizer": null, "kernel_constraint": null, "bias_constraint": null}, "name": "decoder_dense", "inbound_nodes": [[["decoder_LSTM", 0, 0, {}]]]}], "input_layers": [["decoder_inputs", 0, 0], ["input_1", 0, 0], ["input_2", 0, 0]], "output_layers": [["decoder_dense", 0, 0], ["decoder_LSTM", 0, 1], ["decoder_LSTM", 0, 2]]}}}, "weightsManifest": [{"paths": ["group1-shard1of4.bin", "group1-shard2of4.bin", "group1-shard3of4.bin", "group1-shard4of4.bin"], "weights": [{"name": "decoder_LSTM/kernel", "shape": [100, 512], "dtype": "float32"}, {"name": "decoder_LSTM/recurrent_kernel", "shape": [128, 512], "dtype": "float32"}, {"name": "decoder_LSTM/bias", "shape": [512], "dtype": "float32"}, {"name": "decoder_dense/kernel", "shape": [128, 15000], "dtype": "float32"}, {"name": "decoder_dense/bias", "shape": [15000], "dtype": "float32"}, {"name": "embedding/embeddings", "shape": [15000, 100], "dtype": "float32"}]}]}